Model architecture evaluated at 2025-04-29 17:05:53.582136: 
 ----------------------------------------------------------------
        Layer (type)               Output Shape         Param #
================================================================
            Conv2d-1              [-1, 2, 6, 6]              18
         MaxPool2d-2              [-1, 2, 3, 3]               0
 AdaptiveAvgPool2d-3            [-1, 2, 16, 16]               0
           Flatten-4                  [-1, 512]               0
            Linear-5                   [-1, 16]           8,208
            Linear-6                   [-1, 64]           1,088
              ReLU-7                   [-1, 64]               0
            Linear-8                    [-1, 8]             520
================================================================
Total params: 9,834
Trainable params: 9,834
Non-trainable params: 0
----------------------------------------------------------------
Input size (MB): 0.00
Forward/backward pass size (MB): 0.01
Params size (MB): 0.04
Estimated Total Size (MB): 0.05
----------------------------------------------------------------
>Experiment parameters at 2025-04-29 17:05:53.582136
…
