…
geometry     : chain 
kappa        : 1 
tau          : 1000 
p_entangle   : 1 
p_swap       : 1 
lr           : 0.001 
gamma        : 0.9 
epsilon      : 0.1 
criterion    : MSELoss
optimizer    : Adam 

--------------------------------------------------
           Model architecture
--------------------------------------------------
+--------------------------+-----------------+----------------+----------+
| Layer                    | Input Shape     | Output Shape   | #Param   |
|--------------------------+-----------------+----------------+----------|
| GNN                      | [4, 4]          | [4, 4]         | 9,812    |
| ├─(gnn_layers)ModuleList | --              | --             | 4,288    |
| │    └─(0)GATConv        | [4, 64], [2, 3] | [4, 64]        | 4,288    |
| │    └─(1)GATConv        | [4, 64], [2, 3] | [4, 64]        | 4,288    |
| ├─(encoder)GATConv       | [4, 1], [2, 3]  | [4, 64]        | 256      |
| ├─(gatconv)GATConv       | --              | --             | 4,288    |
| ├─(latent)Sequential     | [4, 64]         | [4, 16]        | 5,200    |
| │    └─(0)Linear         | [4, 64]         | [4, 64]        | 4,160    |
| │    └─(1)ReLU           | [4, 64]         | [4, 64]        | --       |
| │    └─(2)Linear         | [4, 64]         | [4, 16]        | 1,040    |
| ├─(decoder)Sequential    | [4, 16]         | [4, 4]         | 68       |
| │    └─(0)Linear         | [4, 16]         | [4, 4]         | 68       |
| │    └─(1)Softmax        | [4, 4]          | [4, 4]         | --       |
+--------------------------+-----------------+----------------+----------+
Total params: 9,812
Model size: 0.04 MB