…
.701725---
--------------------------------------------------
Environment  : RepeaterNetwork 
n            : 4 
directed     : False 
geometry     : chain 
kappa        : 1 
tau          : 100000 
p_entangle   : 0.85 
p_swap       : 0.85 
lr           : 0.001 
gamma        : 0.9 
epsilon      : 0.1 
criterion    : MSELoss
optimizer    : Adam 
---Model architecture--- 
 ----------------------------------------------------------------
        Layer (type)               Output Shape         Param #
================================================================
            Conv2d-1              [-1, 2, 5, 5]              18
         MaxPool2d-2              [-1, 2, 2, 2]               0
            Conv2d-3              [-1, 2, 3, 3]              18
         MaxPool2d-4              [-1, 2, 1, 1]               0
 AdaptiveAvgPool2d-5            [-1, 2, 16, 16]               0
           Flatten-6                  [-1, 512]               0
            Linear-7                   [-1, 32]          16,416
            Linear-8                   [-1, 64]           2,112
              ReLU-9                   [-1, 64]               0
           Linear-10                    [-1, 8]             520
================================================================
Total params: 19,084
Trainable params: 19,084
Non-trainable params: 0
----------------------------------------------------------------
Input size (MB): 0.00
Forward/backward pass size (MB): 0.01
Params size (MB): 0.07
Estimated Total Size (MB): 0.08
----------------------------------------------------------------
