…
temperature = 1 
optimizer = Adam (
Parameter Group 0
    amsgrad: False
    betas: (0.9, 0.999)
    capturable: False
    differentiable: False
    eps: 1e-08
    foreach: None
    fused: None
    lr: 0.0003
    maximize: False
    weight_decay: 1e-05
) 
scheduler = <torch.optim.lr_scheduler.ReduceLROnPlateau object at 0x10f5fd940> 

 Model breakdown 
+-----------------------+----------------+----------------+----------+
| Layer                 | Input Shape    | Output Shape   | #Param   |
|-----------------------+----------------+----------------+----------|
| GNN                   | [4, 4]         | [4, 4]         | 2,780    |
| ├─(encoder)Sequential | --             | --             | 120      |
| │    └─(0)GATConv     | [4, 1], [2, 3] | [4, 8]         | 32       |
| │    └─(1)GATConv     | [4, 8], [2, 3] | [4, 8]         | 88       |
| ├─(latent)Sequential  | [4, 8]         | [4, 64]        | 2,400    |
| │    └─(0)Linear      | [4, 8]         | [4, 32]        | 288      |
| │    └─(1)ReLU        | [4, 32]        | [4, 32]        | --       |
| │    └─(2)Linear      | [4, 32]        | [4, 64]        | 2,112    |
| ├─(decoder)Sequential | [4, 64]        | [4, 4]         | 260      |
| │    └─(0)Linear      | [4, 64]        | [4, 4]         | 260      |
| │    └─(1)Softmax     | [4, 4]         | [4, 4]         | --       |
+-----------------------+----------------+----------------+----------+
Total params: 2,780

-Training information (Q-learning) 
 Trained for 2.241 sec performing 1000 steps.
trained, L=12, t_avg=77.4, t_std=69.7
random, L=8, t_avg=117.0, t_std=83.7
swapASAP, L=165, t_avg=6.0, t_std=8.0
alternating, L=220, t_avg=4.5, t_std=3.6
