…
temperature = 1 
optimizer = Adam (
Parameter Group 0
    amsgrad: False
    betas: (0.9, 0.999)
    capturable: False
    differentiable: False
    eps: 1e-08
    foreach: None
    fused: None
    lr: 0.0003
    maximize: False
    weight_decay: 1e-05
) 
scheduler = <torch.optim.lr_scheduler.ReduceLROnPlateau object at 0x10addda90> 

 Model breakdown 
+-----------------------+----------------+----------------+----------+
| Layer                 | Input Shape    | Output Shape   | #Param   |
|-----------------------+----------------+----------------+----------|
| GNN                   | [4, 4]         | [4, 4]         | 2,780    |
| ├─(encoder)Sequential | --             | --             | 120      |
| │    └─(0)GATConv     | [4, 1], [2, 3] | [4, 8]         | 32       |
| │    └─(1)GATConv     | [4, 8], [2, 3] | [4, 8]         | 88       |
| ├─(latent)Sequential  | [4, 8]         | [4, 64]        | 2,400    |
| │    └─(0)Linear      | [4, 8]         | [4, 32]        | 288      |
| │    └─(1)ReLU        | [4, 32]        | [4, 32]        | --       |
| │    └─(2)Linear      | [4, 32]        | [4, 64]        | 2,112    |
| ├─(decoder)Sequential | [4, 64]        | [4, 4]         | 260      |
| │    └─(0)Linear      | [4, 64]        | [4, 4]         | 260      |
| │    └─(1)Softmax     | [4, 4]         | [4, 4]         | --       |
+-----------------------+----------------+----------------+----------+
Total params: 2,780

            Training information (Q-learning) 
 Trained for 2.210 sec performing 1000 steps.
trained, L=18, t_avg=54.8, t_std=39.4
random, L=18, t_avg=50.1, t_std=39.9
alternating, L=482, t_avg=2.1, t_std=0.4
swapASAP, L=0, t_avg=inf, t_std=inf
