…
geometry     : chain 
kappa        : 1 
tau          : 10000 
p_entangle   : 0.85 
p_swap       : 0.85 
lr           : 0.0003 
gamma        : 0.9 
epsilon      : 0.1 
criterion    : MSELoss
optimizer    : Adam 

--------------------------------------------------
           Model architecture
--------------------------------------------------
+-----------------------+----------------+----------------+----------+
| Layer                 | Input Shape    | Output Shape   | #Param   |
|-----------------------+----------------+----------------+----------|
| GNN                   | [4, 4]         | [4, 4]         | 2,780    |
| ├─(encoder)Sequential | --             | --             | 120      |
| │    └─(0)GATConv     | [4, 1], [2, 3] | [4, 8]         | 32       |
| │    └─(1)GATConv     | [4, 8], [2, 3] | [4, 8]         | 88       |
| ├─(latent)Sequential  | [4, 8]         | [4, 64]        | 2,400    |
| │    └─(0)Linear      | [4, 8]         | [4, 32]        | 288      |
| │    └─(1)ReLU        | [4, 32]        | [4, 32]        | --       |
| │    └─(2)Linear      | [4, 32]        | [4, 64]        | 2,112    |
| ├─(decoder)Sequential | [4, 64]        | [4, 4]         | 260      |
| │    └─(0)Linear      | [4, 64]        | [4, 4]         | 260      |
| │    └─(1)Softmax     | [4, 4]         | [4, 4]         | --       |
+-----------------------+----------------+----------------+----------+
Total params: 2,780
Model size: 0.01 MB
--------------------------------------------------
            Training information 
--------------------------------------------------
 Trained for 43.089 sec performing 20000 steps.
--------------------------------------------------
 Testing Information 
--------------------------------------------------
…
