…
temperature = 1 
optimizer = Adam (
Parameter Group 0
    amsgrad: False
    betas: (0.9, 0.999)
    capturable: False
    differentiable: False
    eps: 1e-08
    foreach: None
    fused: None
    lr: 0.0003
    maximize: False
    weight_decay: 1e-05
) 
scheduler = <torch.optim.lr_scheduler.ReduceLROnPlateau object at 0x10c7d5940> 

 Model breakdown 
+-----------------------+----------------+----------------+----------+
| Layer                 | Input Shape    | Output Shape   | #Param   |
|-----------------------+----------------+----------------+----------|
| GNN                   | [4, 4]         | [4, 4]         | 2,780    |
| ├─(encoder)Sequential | --             | --             | 120      |
| │    └─(0)GATConv     | [4, 1], [2, 3] | [4, 8]         | 32       |
| │    └─(1)GATConv     | [4, 8], [2, 3] | [4, 8]         | 88       |
| ├─(latent)Sequential  | [4, 8]         | [4, 64]        | 2,400    |
| │    └─(0)Linear      | [4, 8]         | [4, 32]        | 288      |
| │    └─(1)ReLU        | [4, 32]        | [4, 32]        | --       |
| │    └─(2)Linear      | [4, 32]        | [4, 64]        | 2,112    |
| ├─(decoder)Sequential | [4, 64]        | [4, 4]         | 260      |
| │    └─(0)Linear      | [4, 64]        | [4, 4]         | 260      |
| │    └─(1)Softmax     | [4, 4]         | [4, 4]         | --       |
+-----------------------+----------------+----------------+----------+
Total params: 2,780
trained, L=14, t_avg=67.1, t_std=61.0
random, L=9, t_avg=110.4, t_std=77.7
alternating, L=230, t_avg=4.3, t_std=3.0
